M7_NLP/d3_Chatbot/Medical_Chatbot/data.pth (torch, 5271 bytes, 6 tensors)

l1.weight f4 [8, 60]
00000000: 70ed 6dbe 27d3 ee3d 02f5 cd3d 59b6 1c3e
00000010: 8848 db3e 3a9d 873e a288 db3d 203c 6cbd
00000020: ca87 c23e 61f7 3c3e 19cb 34be a7b1 eebe
00000030: 639e 393e e1bf d33e 5be8 b7be 0e4f ce3e
00000040: 6af6 c5be 5aa0 a1be a8da bcbe c69e 2e3f
00000050: c5e1 57bd db3b 8b3e 6b82 143f d03e 36be
00000060: 78ba 173f 60a2 1a3f ded2 0dbe 78db aa3e
00000070: 4648 213c 2368 5f3e 4074 20be 61c1 023f
00000080: 6fb3 ba3e 762b 98be 84c8 d83d 6750 99be
00000090: 15eb 86be 0f0f 6d3e 2528 443d d85b 133f
000000a0: c5b6 1a3f 17eb 2a3f 2e7b 2a3e 9303 5c3d
000000b0: 3431 77bb 2428 a1be e909 59bb 1bb6 823e
000000c0: fb70 233f 6100 d2be b87b dfbc 8ef9 d03e
000000d0: 7354 da3e 1c41 50bd 688f 8fbd f593 933e
000000e0: ddf3 29be 8389 303f 6c7b 1d3f 75c4 943d
000000f0: 3adc 993e d998 afbc 2b57 17bd 56f8 9b3d
00000100: fb21 e23e 0e17 afbe 608a abbd e735 edbe
00000110: e219 073f eccc c1be db8a 04bf 9ce2 fdbe
00000120: 0848 8abd aa0b 5d3e f04b 5a3d 8654 0f3f
00000130: 7893 493e 978a 0fbf 4c00 0fbf e3fd 333f
00000140: 3c47 21bf 7093 33be e829 7c3f 3684 a53b
00000150: b35e 5b3f ab53 473f 267b ed3d 3d70 e43e
00000160: 699d bcbe 4b20 5b3e 47f3 c3be 69e1 f13e
00000170: b93e 123f fe23 e6bd 7eef 4fbe 0157 21bf
00000180: c551 21bf b228 85be 8dca e2bd beae 183f
00000190: 07c0 263f 5abb 143f d2e9 04bf 8ef8 b9be
000001a0: 0b08 d1be 1b48 d63e 7ef0 b8be 6e07 943c
000001b0: 764d 1f3f e62a 89bd b174 48bd 3123 bc3e
000001c0: 1ec4 d73e 489e 89be 42f6 3e3d 2d3e 82bc
000001d0: a25e a23e e1d2 1b3f 2a43 fa3e 2466 4c3e
000001e0: 829c 20bd c961 5e3d 3ced eebd 844a e33e
000001f0: 0126 cf3e 4991 03be 1023 4b3e bd73 b9be
00000200: e192 c73e 9690 7fbe ed2c 7a3f f0b5 383f
00000210: b737 173e efc1 fbbb 44d0 bdbe 93ca 843e
00000220: 08ee afbe 6a96 353f ba43 3a3f 6861 0c3f
00000230: 27f2 723f a71c c13e d6b5 253f 9008 683d
00000240: f95b f33e 0ff0 ec3e 5c30 3cbe f741 d43e
00000250: e6e8 133f 7cd7 1b3e b500 c9be cd4a 9e3e
00000260: 272a b33e 6471 62be 0e7d 3f3e 8e4c 1abf
00000270: b84b 34bf 8d25 893e 2690 c7be c54d 463f
00000280: 4b13 703f 92f8 7d3f 4534 d3be d293 ae3e
00000290: 53ed ee3e 3605 66be 866a 0a3f 26e0 c73d
000002a0: f3b8 6d3f ad2c 2cbe 0f78 243e c08b c63e
000002b0: dea2 e63e 5315 de3e 208f 9f3b 8df7 40bd
000002c0: 041d b9bd 01f5 623f ff05 683f 87db d43e
000002d0: 1a6f 9d3d fd25 183f 72da 9abd 8f31 363e
000002e0: 3040 8f3d 21d8 69bd 06f9 313e 99b9 63be
000002f0: 9b25 853e b0dc 14be 7422 5d3f 45da e3be
00000300: 0157 bb3d 87e3 7e3d 1333 6bbe c2cf 693d
00000310: 3ae1 66be 462a e3be c6ce e7be 6266 7a3e
00000320: 1286 5f3f 37b1 58bb d569 bc3e bbce 093f
00000330: 7ab2 823e f1b8 6e3e 1027 80be e619 ff3d
00000340: 647a e13e 2a10 873e 78c6 95be 22b3 2b3e
00000350: 404e 4e3d e4aa 043c 60ac b73d 80d0 e7be
00000360: f7fc e7be b4ab 48bd 2700 64be 3b9f adbe
00000370: 7ed9 a5be e9c5 e7be bfd8 6bbe 40ca a5bd
00000380: 354b ea3e a0f5 9e3c 3146 9fbe 785d 4fbd
00000390: f7f0 b0be 8f3f 783f ad4b 923e 2896 803d
000003a0: 13bf f0bd db05 11be 692c 043e 471c fdbd
000003b0: 00b8 4fbd f2e2 92be 7c88 babe 3ff7 2b3f
000003c0: 4daa 1a3f 2b35 3a3f 6555 393e 9911 b63e
000003d0: 85ea 123d 8f05 91be 6a45 bb3e c7bc 29bd
000003e0: a4b4 613e 9464 a3be 7ab4 8dbe 7640 043f
000003f0: 8c10 803e 5f8d c9bc 3239 2c3f cad1 7a3d
-0.23235106 0.11661368 0.10056497 0.15303935 0.42828774 0.26487142 0.1071942 -0.057674527
0.37994224 0.18453743 -0.176556 -0.46619913 0.18126826 0.4135733 -0.3591946 0.4029469
-0.38664562 -0.3156765 -0.3688557 0.6821102 -0.052705545 0.27194104 0.580115 -0.17797399
0.59268904 0.60404015 -0.1384997 0.33370566 0.0098438915 0.21817069 -0.15669346 0.5107632
0.36465022 -0.29720658 0.1058512 -0.29944155 -0.26351228 0.23150276 0.047889847 0.5756202
0.60435134 0.6676497 0.16648552 0.053714346 -0.0037718536 -0.31475937 -0.003311748 0.2552956
0.6384427 -0.41015914 -0.027280673 0.40815395 0.42642555 -0.050843343 -0.070097744 0.2882382
-0.16596933 0.68959826 0.6151645 0.07264034 0.30050832 -0.021435188 -0.036948364 0.07615726
0.4416655 -0.34197277 -0.08376002 -0.46330187 0.5277387 -0.37851655 -0.51774377 -0.49586952
-0.0675202 0.2158648 0.053295076 0.5598835 0.19685161 -0.56070846 -0.5585983 0.70309275
-0.6299932 -0.17536712 0.98501444 0.005051161 0.85691375 0.7786204 0.11595754 0.4461688
-0.36838844 0.21399038 -0.38271543 0.47242287 0.5712696 -0.11237334 -0.20306203 -0.6302338
-0.63015395 -0.2600761 -0.1107379 0.59641635 0.6513676 0.58098376 -0.5191928 -0.36322445
-0.4082645 0.41851887 -0.3612098 0.018069949 0.6222757 -0.06697635 -0.04893941 0.367456
0.42141813 -0.26878572 0.04662157 -0.015898788 0.31712824 0.6086865 0.48879367 0.19960839
-0.039211757 0.054292474 -0.116663426 0.44392788 0.40458682 -0.1284839 0.19837594 -0.36221114
0.38979247 -0.24957499 0.977248 0.72152615 0.14767347 -0.007683031 -0.37072957 0.25935802
-0.3436129 0.7093264 0.7275959 0.5483613 0.94900745 0.37717173 0.64730585 0.05664879
0.47531107 0.462769 -0.18377823 0.41456577 0.5777725 0.1521892 -0.39258352 0.30916443
0.34993097 -0.22113568 0.18700048 -0.60273063 -0.7042804 0.2678646 -0.38977164 0.77462417
0.9377944 0.99207413 -0.41250816 0.34097153 0.4666544 -0.22462925 0.5406879 0.0975955
0.92860335 -0.16813917 0.16061424 0.38778496 0.45046133 0.43375644 0.0048693568 -0.047111083
-0.090387374 0.88655096 0.9063415 0.41573736 0.076872066 0.59432966 -0.075611964 0.17792343
0.06994665 -0.057090882 0.17380151 -0.22238769 0.26005253 -0.1453731 0.86380696 -0.44502464
0.09147454 0.062228706 -0.22968702 0.0570829 -0.22546855 -0.4436819 -0.45274943 0.24453118
0.8731395 -0.0033064613 0.36799493 0.5383107 0.25526792 0.23312737 -0.25029802 0.124561116
0.4403869 0.2637952 -0.29252982 0.16767552 0.050367594 0.008097384 0.08968425 -0.4527626
-0.45310184 -0.048991874 -0.22265683 -0.33910546 -0.32392496 -0.4526818 -0.23031901 -0.08095217
0.45760503 0.019404233 -0.3110824 -0.050626248 -0.34558842 0.9697198 0.2857336 0.0627864
-0.117551945 -0.1416239 0.12907566 -0.12358909 -0.050712585 -0.2868877 -0.36432254 0.6717414
0.6041611 0.7273738 0.18098982 0.355603 0.035868187 -0.28324553 0.36576396 -0.041439798
0.22041565 -0.31912673 -0.27676755 0.5166086 0.25012624 -0.024603544 0.67274773 0.061235227

l1.bias f4 [8]
00000000: 2acc 5f3f 5948 213f 24ba 7a3f d9c6 e73e
00000010: e33d 173f 5d25 f03e 6ef3 0a3f 7221 3d3f
0.87420905 0.6300102 0.9794028 0.45268896 0.59078807 0.46903506 0.54277694 0.7387916

l2.weight f4 [8, 8]
00000000: 7a2d 633f 3df5 a93f cb3c 7b3f 03c4 7ebf
00000010: 1ca5 47be 0ca0 933d 4529 b6be 66a8 a33e
00000020: 9200 69be 6544 67bd 9259 7e3e 32e1 97bf
00000030: ce28 783f ead3 93bf 6b6f 4e3f 7ca5 c13f
00000040: 213e d73e 4de2 fd3e 27ad b0be 362a 8fbd
00000050: 7bc4 983f ed65 be3f 8790 ce3f 0835 91bd
00000060: 2582 943f 53cd c43f d07f eb3f c09b cf3f
00000070: 9811 1b3f a0af 873f db3e a5bd 20bd 82bf
00000080: f733 12be f674 a2be 17dc 413e a9b6 a3be
00000090: 2015 923e 398e a7be 4c0e 4dbe 5bc2 a5be
000000a0: dc1a 9f3f 194e 863f 363a 1fbe cc4d 1dbf
000000b0: 8000 6dbf d58c de3c ed39 803f e8b2 343e
000000c0: 9c98 803f 9d33 acbf 91d8 af3f 12ae 943d
000000d0: 2d0f 1fbe e793 5dbf 2f43 ccbe ce26 973f
000000e0: 6378 323f e250 0c3f 87cf 7a3e 66a3 98bf
000000f0: 7c6a bfbf 369a 94bf 732c 5d3f ece0 273f
0.88741267 1.3277966 0.9813964 -0.9951784 -0.19496578 0.07208261 -0.3557836 0.31964415
-0.22754124 -0.05646171 0.24838856 -1.1865599 0.96937263 -1.1549046 0.8063876 1.5128627
0.42039588 0.49586716 -0.34507105 -0.06990473 1.1934961 1.4874855 1.6137856 -0.07090193
1.1602217 1.537516 1.839838 1.6219406 0.6057372 1.0600471 -0.08068629 -1.0213966
-0.14277636 -0.3172986 0.18931614 -0.31975296 0.28531742 -0.32725695 -0.20024985 -0.32374844
1.2430072 1.0492584 -0.1554955 -0.61446834 -0.9257889 0.027166763 1.0017678 0.17646372
1.0046573 -1.3453251 1.3737966 0.07259764 -0.15533133 -0.86553806 -0.39895007 1.1808717
0.69714946 0.5481092 0.24493228 -1.1924865 -1.4954371 -1.1609561 0.8639595 0.6557758

l2.bias f4 [8]
00000000: b175 a33d 3a44 fe3e 088c d13e d569 963e
00000010: 428d 72be fd56 b13e ae98 6d3f 1b06 023e
0.07981432 0.49661428 0.40927148 0.29377618 -0.23686698 0.3463668 0.92811096 0.12697642

l3.weight f4 [7, 8]
00000000: afe2 543d 3588 7d3f 5b6d bf3e 3117 5cbf
00000010: db74 f43d 6014 1ebe e6db 8fbf 9ceb 99bf
00000020: 722f 19bf 1eb0 e8bf 708d 2cbf dd28 1c3f
00000030: 9375 c1bc e2ff 6bbf a537 623f 62a7 b5bf
00000040: d98e 113f 2444 c7bf c12c 0b3e 7cde 013f
00000050: 395d 3b3e 137a 303f 9a01 85bf a7f4 9fbf
00000060: 591c 9cbe 71c1 d43e a9bf ee3c 548f f0bf
00000070: a598 3bbe 38cd 3d3f 7c63 c53e e190 3c3f
00000080: e043 383f ba86 b3be 416d 11bf 448b c8bd
00000090: 09d4 a93e 2928 123f 8c03 bdbe 3dab 663f
000000a0: e6d4 0e3f 1983 3a3f 6da2 8bbe 8fa5 4abf
000000b0: a994 bcbd 7848 a0bf 0171 6c3f fa05 afbf
000000c0: 9c08 00c0 2800 2bbf 6ffa 1b3f f798 6e3f
000000d0: aec6 2d3e 0465 1dbf 3cac d1bf 5438 9cbf
0.051973995 0.9903596 0.3738812 -0.8597289 0.11936351 -0.1543746 -1.1238983 -1.2025027
-0.5983802 -1.8178747 -0.67403316 0.6099985 -0.023615634 -0.9218732 0.88366157 -1.4191706
0.56858593 -1.556767 0.13591291 0.5073011 0.1829728 0.6893627 -1.0391114 -1.2496537
-0.30490378 0.41553834 0.029144125 -1.879374 -0.18319948 0.74141264 0.38552463 0.7365857
0.7197857 -0.35063726 -0.56807333 -0.09792188 0.33169582 0.5709253 -0.3691677 0.9010504
0.5579361 0.7285629 -0.2727236 -0.7915887 -0.09208042 -1.2522116 0.9235993 -1.3673699
-2.0005255 -0.66797113 0.60929006 0.93202156 0.16970322 -0.6148226 -1.6380687 -1.220469

l3.bias f4 [7]
00000000: 6246 acbd 2404 b03e 3cf2 d9be feb2 a03d
00000010: 42a5 fcbe a85d eb3d 1298 67be
-0.08411862 0.3437816 -0.42567623 0.0784664 -0.49344832 0.11492473 -0.22616604
